model.onnx (onnx, 8661 bytes, 5 tensors)

StatefulPartitionedCall/sequential_1/dense_5/MatMul/ReadVariableOp:0 f4 [32, 1]
-0.38246697 -0.06320093 -0.004477577 0.020617394 0.20969564 0.15376393 -0.038413927 0.20248163
0.0038519634 -0.27621937 -0.2637472 0.3090475 -0.18117636 -0.050199762 -0.05242018 -0.010734763
0.20163964 -0.29009044 -0.021949587 -0.02587804 -0.01305095 -0.0037042373 0.26530522 -0.004240773
-0.20479974 0.034092367 -0.04053323 -0.41495144 -0.059658002 0.3969563 -0.31777373 0.20872208
00000000: b6d2 c3be 7d6f 81bd a3b8 92bb cfe5 a83c
00000010: 74ba 563e 4b74 1d3e ec57 1dbd 5857 4f3e
00000020: 3971 7c3b a06c 8dbe df09 87be 793b 9e3e
00000030: 4c86 39be 449e 4dbd 8bb6 56bd dce0 2fbc
00000040: 9f7a 4e3e bc86 94be 9fcf b3bc 2ffe d3bc
00000050: a7d3 55bc cac2 72bb 16d6 873e 2ff6 8abb
00000060: 06b7 51be 70a4 0b3d 2c06 26bd 8474 d4be
00000070: f35b 74bd db3d cb3e 3db3 a2be 3ebb 553e

StatefulPartitionedCall/sequential_1/dense_4/MatMul/ReadVariableOp:0 f4 [32, 32]
-0.28818753 -0.45056286 0.19571795 -0.25886697 -0.12399131 0.011870464 0.226287 -0.20972945
-0.5258659 -0.27608562 -0.21412832 -0.22874975 -0.24627014 0.16396344 -1.585528 0.13343935
-0.18122973 -0.0559662 -0.08443037 -0.075485736 -0.15576331 -0.078582615 0.018040758 -0.028005714
-0.17580684 -0.15986088 -0.17910142 -0.24566999 -0.5059657 0.0094016865 -0.057130948 0.14066881
0.17650262 -0.41404355 -0.08570861 -0.0009244129 0.13261199 0.03208144 0.18995616 -0.052212324
-0.40452677 0.0061392756 -0.071467325 0.04464352 0.0048647267 0.25636676 0.29442325 -0.9695031
0.062419463 -0.044140756 -0.6875151 -0.014817254 -0.24628122 -0.14483984 0.030552033 -0.050615385
0.13754705 -0.44396836 0.10702045 0.261287 -2.0500813 -0.15458694 0.07728785 0.014387595
-0.08614816 0.34947872 -0.032908514 -0.31161195 0.17941356 0.13202493 -0.1343253 -0.20608324
0.0041300403 -0.274913 -0.056666777 -0.06583175 -0.172604 -0.18192844 0.7924145 0.11998638
-0.0044806777 0.13574952 -0.1006383 0.048721466 -0.2370994 0.045167148 0.006898321 -0.19103324
-0.009066086 -0.33707312 -3.507991 0.17750242 0.1929617 0.3046288 -0.08592385 0.23264799
0.17967317 -0.16757287 -0.08705749 -0.19318664 -0.27929157 0.08047287 -0.17656812 -0.15489134
0.010595502 -0.31588984 -0.20909843 -0.10654195 -0.07476637 -0.14734201 0.17562166 0.21681292
-0.4586917 -0.25867957 -0.5597723 -0.368165 -0.07697968 0.054164845 -0.18487613 -0.07756537
-0.11188613 -0.26656783 -0.20062727 0.02300325 0.07509791 0.2461131 -1.1187487 -0.3254464
0.037111998 -0.18656763 0.006424129 0.05968526 0.13454837 -0.2120929 0.09539783 -0.04692304
-0.22015837 -0.24925986 0.03335604 -0.11335574 0.1858072 -0.026828408 -0.1785213 0.02275899
-0.22706465 -0.050559253 -0.16284175 -0.19962457 0.19199172 0.08436236 -0.16206685 -0.10299632
0.28745535 0.20109627 -0.2777373 -0.2575233 -0.065129355 -0.19689217 0.22904035 0.16401473
-0.20273483 0.13389757 0.12575495 -0.17601979 -0.23615584 -0.24205661 0.08691147 -0.084086195
0.1877487 -0.08396414 0.043974996 -0.057458386 0.14247131 -0.01842013 0.053492486 -0.03332758
-0.0027243197 -0.074182734 0.090148956 -0.090401545 0.015742034 0.22458908 0.085344225 0.021080792
-0.08093937 0.11812317 0.18249887 0.055819154 -0.011938274 0.08420357 -0.045285404 0.12466979
0.19372007 0.025975399 -0.19403332 0.0078260135 -0.14182957 -0.1871496 -0.26070112 -0.2089672
-0.24234009 -0.34409523 0.13373315 0.20169961 -0.27643844 -0.08288673 -0.066984184 -0.2259201
-0.1446842 -0.29217735 0.2921498 -0.39301708 -0.10130634 0.04943291 -0.053931653 0.121410266
0.21534403 0.12832849 0.27684554 -0.29111227 0.13621297 -0.13360873 -0.15677658 -0.30253562
-0.2688356 -0.19021079 0.20322832 -0.078431144 -0.2703957 0.13782936 -0.008704573 -0.2955451
-0.23808531 0.047828525 -0.11989096 -0.16875932 -0.2705642 -0.27604857 0.043266296 -0.19543156
0.25016418 -0.19414413 -0.21074504 0.16126135 -0.05358374 -0.1937814 -0.085899815 0.17669126
-0.28580835 0.09949565 0.22422299 0.08111304 -0.23908302 0.0076714754 -0.2681832 -0.00468567
00000000: 518d 93be 2db0 e6be 496a 483e 368a 84be
00000010: 28ef fdbd 567c 423c c8b7 673e 51c3 56be
00000020: 269f 06bf 185b 8dbe 7444 5bbe 603d 6abe
00000030: 3d2e 7cbe 08e6 273e 95f2 cabf 53a4 083e
00000040: 4994 39be d03c 65bd d4e9 acbd 4498 9abd
00000050: 6b80 1fbe ecef a0bd 36ca 933c 3d6c e5bc
00000060: b506 34be 92b2 23be 5d66 37be ea90 7bbe
00000070: f886 01bf 8809 1a3c 2402 6abd 7c0b 103e
00000080: 1abd 343e 84fd d3be ff87 afbd 4d54 72ba
00000090: 70cb 073e d467 033d de83 423e 97dc 55bd
000000a0: 221e cfbe fa2b c93b 765d 92bd 20dc 363d
000000b0: 4968 9f3b 8142 833e a5be 963e 5b31 78bf
000000c0: 8dab 7f3d f0cc 34bd fd00 30bf 11c4 72bc
000000d0: 2531 7cbe e550 14be 4248 fa3c 1452 4fbd
000000e0: 22d9 0c3e d24f e3be 8a2d db3d 69c7 853e
000000f0: 8834 03c0 0a4c 1ebe 1849 9e3d f2b9 6b3c
00000100: 726e b0bd e0ee b23e 14cb 06bd 9a8b 9fbe
00000110: 30b8 373e 8b31 073e 928c 09be 7c07 53be
00000120: 4a55 873b 66c1 8cbe 6c1b 68bd ccd2 86bd
00000130: 1abf 30be 734b 3abe addb 4a3f 6bbb f53d
00000140: a6d2 92bb ec01 0b3e 741b cebd 2990 473d
00000150: 2fca 72be 3001 393d 500b e23b 389e 43be
00000160: ec89 14bc d994 acbe ed82 60c0 32c3 353e
00000170: c097 453e 4ef8 9b3e d8f8 afbd 463b 6e3e
00000180: 3efc 373e 3998 2bbe 334b b2bd b8d2 45be
00000190: 4eff 8ebe f6ce a43d 46ce 34be d69b 1ebe
000001a0: c298 2d3c 50bc a1be e61d 56be aa32 dabd
000001b0: 1c1f 99bd d3e0 16be 2ad6 333e 3504 5e3e
000001c0: a3d9 eabe a671 84be 3d4d 0fbf 1f80 bcbe
000001d0: 86a7 9dbd f5db 5d3d 2b50 3dbe 98da 9ebd
000001e0: 8e24 e5bd 947b 88be 3c71 4dbe 5071 bc3c
000001f0: efcc 993d 1305 7c3e 2833 8fbf e9a0 a6be
00000200: c002 183d 960b 3fbe 8081 d23b 8878 743d
00000210: 0cc7 093e e22e 59be f05f c33d 6032 40bd
00000220: 3271 61be fa3d 7fbe 58a0 083d 0e27 e8bd
00000230: 3e44 3e3e 40c7 dbbc 4ace 36be 1071 ba3c
00000240: a383 68be 3817 4fbd fdbf 26be 626a 4cbe
00000250: 7a99 443e 2cc6 ac3d daf4 25be bcef d2bd
00000260: 592d 933e 2eec 4d3e 9533 8ebe 18da 83be
00000270: 8a62 85bd 1a9e 49be 8e89 6a3e 7af3 273e
00000280: b899 4fbe 721c 093e e8c5 003e 883e 34be
00000290: d6d2 71be b0dd 77be a4fe b13d 6235 acbd
000002a0: 3241 403e 64f5 abbd 201f 343d 7c59 6bbd
000002b0: 00e4 113e d0e5 96bc f01a 5b3d 8082 08bd
000002c0: 808a 32bb 1eed 97bd 04a0 b83d 7224 b9bd
000002d0: 70f5 803c aefa 653e f4c8 ae3d a0b1 ac3c
000002e0: 8ac3 a5bd 90ea f13d fce0 3a3e a0a2 643d
000002f0: c098 43bc ec72 ac3d 307d 39bd e052 ff3d
00000300: 8e5e 463e 5cca d43c acb0 46be ae38 003c
00000310: c53b 11be 25a4 3fbe 9e7a 85be 7ffb 55be
00000320: 0028 78be 402d b0be 58f1 083e 588a 4e3e
00000330: 5789 8dbe 85c0 a9bd 012f 89bd 9957 67be
00000340: 1828 14be 4598 95be a994 953e 8939 c9be
00000350: b379 cfbd 2a7a 4a3d 70e7 5cbd f2a5 f83d
00000360: 2583 5c3e 8b68 033e b3be 8d3e ab0c 95be
00000370: 6a7b 0b3e bad0 08be 0a8a 20be f3e5 9abe
00000380: d2a4 89be 9ec6 42be 161b 503e 82a0 a0bd
00000390: 4e71 8abe 2423 0d3e a09d 0ebc b051 97be
000003a0: a3cc 73be d8e7 433d 6489 f5bd 3ecf 2cbe
000003b0: 6487 8abe 3d56 8dbe 0038 313d 361f 48be
000003c0: 8515 803e b8cd 46be 8ccd 57be b221 253e
000003d0: a07a 5bbd a26e 46be 3eec afbd 8eee 343e
000003e0: 7955 92be 60c4 cb3d b69a 653e 981e a63d
000003f0: 2ed2 74be 0061 fb3b 4f4f 89be 408a 99bb

StatefulPartitionedCall/sequential_1/dense_4/BiasAdd/ReadVariableOp:0 f4 [32]
0.0 -0.3838082 -0.42144692 -0.13987711 -0.067011684 0.71601725 -0.044954043 -0.1423627
-0.30623123 -0.1455205 0.0 -0.031737532 -0.031760193 -0.46247685 -0.54960465 -1.1383508
0.7501406 0.0 0.27418855 -0.20779891 0.16111219 -0.1186661 -0.10844028 -0.2937839
-0.08811442 -0.4148805 -0.12670068 0.0 -0.12899363 0.0008648553 -0.45978898 -0.03166529
00000000: 0000 0000 8282 c4be e4c7 d7be f23b 0fbe
00000010: 6c3d 89bd e84c 373f bb21 38bd 87c7 11be
00000020: 57ca 9cbe 5303 15be 0000 0000 37ff 01bd
00000030: fa16 02bd c4c9 ecbe e4b2 0cbf 7bb5 91bf
00000040: 3709 403f 0000 0000 7162 8c3e 3dc9 54be
00000050: 98fa 243e 3607 f3bd f015 debd d86a 96be
00000060: 5575 b4bd 386b d4be d3bd 01be 0000 0000
00000070: e816 04be 75b7 623a 7669 ebbe 77b3 01bd

StatefulPartitionedCall/sequential_1/dense_3/MatMul/ReadVariableOp:0 f4 [14, 32]
-2.0331624 -0.71576554 0.10122584 -0.4979397 -0.3387922 -0.07909191 -0.24007273 0.12044516
0.17015237 -0.10872465 -0.3697185 -1.40122 3.1779592 -0.22724403 0.042742312 -0.19723095
-0.1557551 -0.08393334 0.40032807 -0.62195176 0.051302988 0.29030687 2.1593606 0.012999445
-0.101244025 0.14097866 0.03393644 0.23222609 0.30395368 0.35227272 -0.57955587 0.25876233
-0.29679823 -0.060239922 0.073169276 -0.11070503 0.32875565 0.23027161 -0.009996578 0.22204545
0.19258018 -0.019902945 0.16287169 -0.19615008 0.21560937 -0.32198083 -0.21425468 -0.21663441
-0.30047086 -0.23587416 0.23844318 0.16013257 -0.35953277 0.10606773 0.45048827 0.14176801
-0.035113975 -0.034366727 -0.08740267 0.03418278 0.002137077 -0.16611381 -0.1182471 -0.039128423
-0.09831674 -0.14274873 -0.23496395 0.1285711 0.23510805 0.28043738 0.019933408 0.34532222
0.33189678 0.3605989 -0.13537315 0.03569587 0.15364678 0.074854255 0.18261763 0.055087864
0.15416136 0.23011322 -0.1985783 -0.04785529 0.1079651 0.11035117 -0.021445008 0.22637102
0.27371168 0.28348687 0.25165108 -0.16249792 0.059886817 0.34061036 -0.31099403 -0.22705942
0.2059233 0.10737509 -0.06074264 -0.17223096 -0.23364736 -0.050073713 -0.07467055 0.1548762
0.23974381 -0.24178909 -0.11671663 0.36057767 0.057345636 -0.023603648 0.10414517 -0.19480163
0.032926884 0.10632946 -0.024834758 -0.13654882 0.004058175 -0.24553005 0.13510555 -0.27533323
-0.338294 -0.020370781 0.2645729 -0.2145447 -0.3601655 -0.22560853 0.12383828 -0.12524465
-0.14720044 0.15142022 -0.1038322 0.10310808 0.2776774 0.110141635 -0.08063763 0.32627395
-0.26000533 -0.15240915 0.43774527 -0.13718864 0.054189913 0.33075544 6.1661005e-05 0.23972777
-0.2432021 -0.12273171 0.13797471 -0.26765913 0.056722704 0.10639109 -0.10646563 -0.26251677
-0.22789998 0.17411682 0.23629043 0.15217444 0.022519575 0.1735411 -0.32832465 0.3197337
-0.3852262 -0.2688553 -0.25344807 0.37459433 -0.18921614 0.3405464 -0.07956838 -0.041959524
-0.28335243 -0.23129639 -0.1795283 -0.12775993 0.15077105 0.32996783 0.021478444 -0.12862399
-0.18498492 0.07235034 -0.14723043 -0.41802815 0.0013877997 -0.15565193 -0.4443676 -0.08036852
0.23689242 -0.071752936 0.33025464 -0.157064 0.021667553 0.22402796 -0.27244627 -0.33698803
3.9845324 3.311151 -1.0643852 15.573326 -0.07937667 0.3037689 -1.1212597 0.2025272
-0.16576558 0.3160163 4.328672 -55.20493 -1.6629084 0.26864883 0.2906672 -0.1502844
-0.600465 -4.4006906 -0.031461615 -0.544299 -0.26899523 -0.068682134 0.1416481 -0.07267085
-2.314837 -0.24472308 0.15625742 -0.88735837 0.03200736 -0.238311 -0.18498288 0.2325885
-10.973341 -14.900162 -8.052241 -4.633347 0.3053783 0.3555486 1.3487625 -0.05549282
-0.19563147 0.066134155 -4.161169 62.16897 -7.22609 -0.123689905 0.11352897 0.14341936
-0.3914079 3.5413775 -2.472196 -10.874722 -0.40032637 0.043134257 -19.97824 -0.20569481
2.1655068 -0.08938071 0.078398675 0.52985054 0.20565277 0.11606464 -18.269093 -0.25268632
00000000: 551f 02c0 693c 37bf 7e4f cf3d f4f1 febe
00000010: 2c76 adbe f0fa a1bd a0d5 75be f4ab f63d
00000020: 6c3c 2e3e 08ab debd be4b bdbe 2d5b b3bf
00000030: af63 4b40 a9b2 68be 9012 2f3d e9f6 49be
00000040: 447e 1fbe 3ee5 abbd cdf7 cc3e 3b38 1fbf
00000050: 1523 523d 1aa3 943e f732 0a40 a0fb 543c
00000060: 0759 cfbd b65c 103e f000 0b3d adcc 6d3e
00000070: d19f 9b3e 175d b43e c65d 14bf 7f7c 843e
00000080: f0f5 97be 23be 76bd c6d9 953d 52b9 e2bd
00000090: a952 a83e 52cc 6b3e b0c8 23bc e25f 633e
000000a0: bd33 453e 800b a3bc d6c7 263e 91db 48be
000000b0: b4c8 5c3e acda a4be 9465 5bbe 69d5 5dbe
000000c0: 51d7 99be ff88 71be 732a 743e cbf9 233e
000000d0: ae14 b8be 0a3a d93d 66a6 e63e a22b 113e
000000e0: acd3 0fbd 20c4 0cbd 2c00 b3bd 3e03 0c3d
000000f0: 340e 0c3b bd19 2abe 892b f2bd 2045 20bd
00000100: 495a c9bd b92c 12be 649a 70be 24a8 033e
00000110: 2ac0 703e 7d95 8f3e 634b a33c 13ce b03e
00000120: 60ee a93e 6ba0 b83e 429f 0abe d535 123d
00000130: 9555 1d3e 304d 993d 1e00 3b3e d0a3 613d
00000140: 7adc 1d3e cda2 6b3e 1c58 4bbe e903 44bd
00000150: ce1c dd3d cbff e13d 71ad afbc cecd 673e
00000160: f023 8c3e 3125 913e 69d8 803e db65 26be
00000170: e14b 753d 7b64 ae3e 9c3a 9fbe 4482 68be
00000180: 8fdd 523e 79e7 db3d 46cd 78bd 505d 30be
00000190: 4141 6fbe 181a 4dbd e0ec 98bd de97 1e3e
000001a0: 677f 753e 8f97 77be 2109 efbd a39d b83e
000001b0: 42e3 6a3d 705c c1bc 104a d53d 147a 47be
000001c0: 57de 063d 43c3 d93d 4372 cbbc 74d3 0bbe
000001d0: 70fa 843b 3b6c 7bbe 1c59 0a3e 7af8 8cbe
000001e0: df34 adbe a0e0 a6bc 1976 873e 9bb1 5bbe
000001f0: 9d67 b8be ec05 67be ed9e fd3d 2240 00be
00000200: b6bb 16be e70d 1b3e faa5 d4bd 542a d33d
00000210: bb2b 8e3e f091 e13d 5725 a5bd 610d a73e
00000220: 6b1f 85be 2511 1cbe 2620 e03e 2e7b 0cbe
00000230: 3ef6 5d3d c758 a93e 0050 8138 327b 753e
00000240: f909 79be c35a fbbd 3e49 0d3e 9e0a 89be
00000250: 1156 683d 92e3 d93d a70a dabd 9968 86be
00000260: 9d5e 69be ae4b 323e 1ef6 713e 9ed3 1b3e
00000270: f97a b83c c2b4 313e 2b1a a8be 23b4 a33e
00000280: 5e3c c5be 67a7 89be f2c3 81be d4ca bf3e
00000290: e0c1 41be 195c ae3e bff4 a2bd c0dd 2bbd
000002a0: 9213 91be f6d8 6cbe 44d6 37be 80d3 02be
000002b0: ba63 1a3e 8bf1 a83e 90f3 af3c 02b6 03be
000002c0: b06c 3dbe 6a2c 943d 93c3 16be c907 d6be
000002d0: d5e6 b53a 3863 1fbe 2684 e3be 4098 a4bd
000002e0: ed93 723e 34f3 92bd 2317 a93e 63d5 20be
000002f0: 2780 b13c 9667 653e 147e 8bbe b289 acbe
00000300: 9402 7f40 e6e9 5340 c63d 88bf 582c 7941
00000310: 3c90 a2bd 9987 9b3e 7085 8fbf 4a63 4f3e
00000320: 74be 29be e3cc a13e 7b84 8a40 d9d1 5cc2
00000330: 2fda d4bf 578c 893e 55d2 943e 27e4 19be
00000340: 13b8 19bf 75d2 8cc0 e5dd 00bd 2e57 0bbf
00000350: beb9 89be 38a9 8cbd 330c 113e 74d4 94bd
00000360: 4a26 14c0 b098 7abe f201 203e eb29 63bf
00000370: 261a 033d cc07 74be 276c 3dbe ae2b 6e3e
00000380: ce92 2fc1 1067 6ec1 fbd5 00c1 6144 94c0
00000390: 8b5a 9c3e 770a b63e 40a4 ac3f 704c 63bd
000003a0: 9e53 48be 5871 873d 4c28 85c0 06ad 7842
000003b0: 213c e7c0 2251 fdbd e081 e83d 86dc 123e
000003c0: 9e66 c8be eea5 6240 7638 1ec0 dcfe 2dc1
000003d0: 94f7 ccbe 8cad 303d 6fd3 9fc1 a9a1 52be
000003e0: aa97 0a40 3c0d b7bd 7c8f a03d 49a4 073f
000003f0: a496 523e 4cb3 ed3d 1a27 92c1 1a60 81be

StatefulPartitionedCall/sequential_1/dense_3/BiasAdd/ReadVariableOp:0 f4 [32]
-0.08365948 -0.026056724 0.015238446 -0.041284524 0.0 0.0 -0.13685717 0.0
-0.034191243 0.0 -0.17315662 0.01320613 -0.10642666 0.0 0.0 0.0
-0.025106078 -0.13460809 -0.089409165 -0.12251977 -0.025756968 -0.0491385 -0.056292683 0.0
-0.10872681 0.0 0.0 -0.022698943 -0.030106433 0.0 0.08210807 0.0
00000000: a955 abbd e974 d5bc adaa 793c f619 29bd
00000010: 0000 0000 0000 0000 4924 0cbe 0000 0000
00000020: 1e0c 0cbd 0000 0000 f84f 31be 865e 583c
00000030: 39f6 d9bd 0000 0000 0000 0000 0000 0000
00000040: 43ab cdbc b4d6 09be 271c b7bd a5eb fabd
00000050: 4700 d3bc 7445 49bd 2893 66bd 0000 0000
00000060: 29ac debd 0000 0000 0000 0000 22f3 b9bc
00000070: c4a1 f6bc 0000 0000 4728 a83d 0000 0000
